models/model1.pth (torch, 110994 bytes, 10 tensors)

weight f4 [64, 3, 11, 11]
000000 35 b7 e4 bc 93 3e 5a bd dd 00 7d bd e8 cd 5d bd
       -0.027919391 -0.05328233 -0.0617684 -0.054151446
000010 93 19 07 bd 5e 80 80 3b 2c d1 29 bd 58 68 0e 3b
       -0.032983374 0.0039215526 -0.041459247 0.0021729674
000020 50 95 97 bc ab c6 63 bc 75 09 5d 3c 57 62 00 bc
       -0.018503815 -0.013902347 0.013491024 -0.007835946
000030 1d 80 9f bd 8a 38 41 bd 9b 3c 88 3b 7c 79 80 3c
       -0.077881075 -0.04717306 0.0041576154 0.015682928
000040 14 f2 71 3c 59 03 38 bc a7 f4 8b bd 7c 8b 3a bd
       0.014767189 -0.011231267 -0.06833773 -0.04554318
000050 b3 9f 0c 3b 2f d3 4d bd 2e fe 8e bd 28 8c c8 bc
       0.0021457493 -0.05025023 -0.06982075 -0.024480894
000060 b5 24 00 bd 99 5d cf bc f3 0f 85 bc 90 c9 89 bd
       -0.031285007 -0.025313186 -0.016242957 -0.06727898
000070 8e 7b 00 3c ee 42 8e 3b 82 b5 22 bd be 1e 47 bd
       0.007841958 0.0043414747 -0.03972388 -0.048613302
000080 b9 4a d5 bb d7 3b 8e bd 02 3d 07 3c 36 68 a9 3c
       -0.006509152 -0.06945007 0.0082542915 0.020679574
000090 52 af e7 bc 53 34 89 bd 4c 05 25 bc 29 e8 cc 3b
       -0.028281841 -0.06699433 -0.010072064 0.0062532616
0000a0 bd fd 82 bd 9a da 1e bd 07 ff 9e bc 98 2b d0 bb
       -0.06396053 -0.038782693 -0.019408716 -0.006352853
0000b0 08 1c c8 bc 0c f4 9a bd 7d 5d 95 bd 9a 9c 5e bc
       -0.024427429 -0.075660795 -0.07293222 -0.013587141
0000c0 44 f2 03 bc 15 97 4b bc e2 37 c8 bc 2a 83 95 bd
       -0.008053366 -0.0124261575 -0.02444071 -0.07300408
0000d0 a0 ac 82 3c eb e9 bc 3b f9 1d 64 bd 36 54 af bc
       0.015951455 0.00576519 -0.055692647 -0.02140246
0000e0 0b 4d a0 bd 94 f3 13 bd 2e 5e 6b bd ea ff 32 bd
       -0.07827195 -0.036120966 -0.057462864 -0.04370109
0000f0 2b 19 42 bb 94 d3 c3 bc 6b 73 62 3c 28 37 9a bd
       -0.0029617052 -0.0239046 0.013821463 -0.075300515
000100 cf 12 d6 3b 4f 9d 87 3c f1 a0 6d bd 63 d1 ca bb
       0.006533004 0.016554503 -0.058014814 -0.0061895116
000110 78 5e 94 bc cf 4a b5 3b 20 95 1d bd 50 c5 06 bd
       -0.018111452 0.0055325995 -0.038472295 -0.032903016
000120 3f 01 4f bd 79 b8 85 bd b8 a6 76 bd 78 92 6a bd
       -0.050538298 -0.06529326 -0.06021759 -0.05726859
000130 db f0 f9 bb 5d 7d 0e bd c6 3c af bb 70 fa 88 bc
       -0.007627589 -0.034787524 -0.005347821 -0.01672098
000140 0b 6b f6 bb 86 5c 3d 3c 2d 6f 9a bd 14 7b 4d bd
       -0.0075200847 0.011557704 -0.07540736 -0.050166205
000150 36 a3 8b bc 25 25 17 3c e5 c7 8b bd ab ab 0e bd
       -0.017045598 0.009225165 -0.06825236 -0.034831684
000160 52 73 38 bd 16 e3 f8 bc 0e 5f 72 bc 76 6a 62 bb
       -0.045031853 -0.03038172 -0.014793171 -0.003454832
000170 ed 92 72 bd db 98 96 bd 5c 9a 31 3c 57 fd a3 bd
       -0.05922215 -0.073533736 0.010840025 -0.08007305
000180 00 2e 63 bd 27 e1 8a bd 18 bb 2b bd 2a dc 32 bc
       -0.05546379 -0.06781226 -0.041926473 -0.010916749
000190 bc 60 27 bc 11 c5 04 3c 39 96 72 bc bf a1 c5 bb
       -0.010215934 0.008103625 -0.014806324 -0.0060312445
0001a0 50 0f 40 3c 0c 9d 57 bd ef 67 28 bc 02 cd 09 bd
       0.011722401 -0.052640006 -0.010278686 -0.033642776
0001b0 18 b5 b6 bc dd 7d 32 bc f0 58 91 bd 81 c0 a0 bc
       -0.02230315 -0.010894266 -0.070970416 -0.019623043
0001c0 ac 15 8e bd c6 18 9f bd 71 69 93 bc 6f e9 87 bd
       -0.06937727 -0.07768397 -0.017994614 -0.06636321
0001d0 62 a4 4a 3c fd da 2d 3c 4e c0 a9 bd 63 a2 51 bb
       0.0123682935 0.010611293 -0.08288632 -0.003198766
0001e0 6b 6a 0f 3c 3f cb 90 3d 90 1f 15 bc 8d 17 a8 3d
       0.008753399 0.07070016 -0.009101763 0.08207617
0001f0 ae fa 38 ba 9c 8a 13 3d 38 2d a6 3c ba 09 16 bc
       -0.0007056397 0.03602086 0.020285234 -0.009157592
000200 87 93 06 3d 1c 26 8c 3d cb a5 d2 3c 90 c7 96 3c
       0.032855537 0.06843206 0.025713822 0.018405706
000210 37 69 87 3d 58 96 4f 3d 4d 31 af 3d b2 b0 84 3c
       0.06611865 0.05068049 0.08554325 0.016197536
000220 bd 5c 50 bc ab 20 a0 3d 48 2b 69 bc 7d c4 84 3d
       -0.012717423 0.07818731 -0.01423151 0.0648279
000230 84 87 81 3c 12 b3 b6 3c 6c f7 22 3d 9a 86 9f 3b
       0.01581169 0.022302184 0.03978674 0.0048683407
000240 9a c9 f1 3c ae d7 8d 3d 8f 43 c0 3c 8b eb 32 3d
       0.029515076 0.06925903 0.023469714 0.043681663
000250 91 5d b9 3d 8e de 0f 3d ef d3 8e 3d 55 e1 7b 3d
       0.090510495 0.035124354 0.06974017 0.06149419
000260 de 6c 1d bc 75 54 01 3d f1 07 df 3c 4f f7 5d 3d
       -0.0096084755 0.031574685 0.027225466 0.05419093
000270 9e 04 02 3c 0c c3 18 3d 55 ff 10 bc ad ac 3e 3c
       0.007935671 0.037295386 -0.008849938 0.011637849
000280 99 30 51 3d 71 07 f9 3b db ad a0 3c 56 c0 90 3d
       0.051071737 0.007599764 0.01961415 0.07067935
000290 da 29 97 3d 24 57 96 3d 3f 38 71 3d 86 a7 bc bb
       0.073810294 0.073408395 0.05889153 -0.005757275
0002a0 cc 1d ea 3c 53 1e bf 39 cb d9 c9 3c 67 fc a9 3d
       0.028578661 0.00036452952 0.024639985 0.08300095
0002b0 0b ce 61 3d 81 db 77 3d 83 7f 63 3d 5b 93 a0 3d
       0.05512814 0.06051207 0.055541527 0.07840606
0002c0 4a 8d a1 3d 95 e3 3d 3d 40 f8 ed 3c 6b fe f7 3c
       0.07888277 0.046359617 0.029049039 0.030272683
0002d0 f8 c1 a5 3d 4a fc 7e 3d 95 26 79 3d 96 73 0f 3c
       0.08093637 0.06225232 0.06082781 0.008755585
0002e0 aa a7 ba 3c ea 37 a9 3d 08 01 09 3d 03 36 05 3d
       0.022785027 0.08262618 0.03344825 0.032522213
0002f0 42 a8 27 bc 6b 67 b3 3d f8 26 1a 3d 00 22 f5 3c
       -0.010232987 0.0875996 0.03763482 0.029923439
000300 20 1b 12 3c 68 76 3f 3d 6e a2 15 3d 9f 3f 28 bc
       0.0089176 0.04674378 0.03653186 -0.010269075
000310 44 6c ce 3a ac 2e 9a 3d 20 48 81 bc 9f 2d db 3b
       0.0015748818 0.07528433 -0.015781462 0.006688788
000320 20 6a 22 3d 67 bb 33 3c 22 03 ed 3c 79 ee 50 3d
       0.03965199 0.010969973 0.028932158 0.051008675
000330 8f 30 92 3d 01 47 7e 3c cc 55 81 3d 50 92 0e bb
       0.07138168 0.015519858 0.063151926 -0.002175469
000340 2b c8 93 3d 8e 5e 60 3d 7d c1 9a bc 23 dc 1d bc
       0.072159134 0.054777674 -0.01889109 -0.009635004
000350 97 6d a2 3d c8 aa da 3c 37 12 41 bc 71 8f 87 3d
       0.07931059 0.026692763 -0.011784128 0.06619156
000360 00 0c 1f 3d 61 fb 6d 3b dc 47 35 3b 6e 09 a4 3c
       0.038829803 0.0036313164 0.002766124 0.020024028
000370 c3 ef db bb c4 3c 88 3d f5 da 4c 3d f0 42 69 bc
       -0.0067119314 0.06652215 0.0500135 -0.014237151
000380 cf 23 dc 3b bf 59 e4 3b 8f 09 4e 3d 45 e9 12 3d
       0.006718136 0.0069687064 0.050302085 0.035866994
000390 05 b4 39 3d 8c 01 87 3d 51 d0 af 3c 39 70 36 3d
       0.045337696 0.06592092 0.021461638 0.044540618
0003a0 89 60 bb 3c 57 ea 08 3c e7 e7 51 3d 7b c5 24 3c
       0.02287318 0.008356652 0.05124655 0.010056849
0003b0 4a ce 3f 3d da 19 d2 ba 05 6d 27 3d 53 b0 69 bc
       0.046827592 -0.0016029433 0.040875454 -0.01426323
0003c0 d5 02 67 3d be c5 01 3d 8d 7f a3 3c d8 a1 94 3b
       0.056399185 0.031682722 0.019958282 0.004535895
0003d0 de af 35 bd 4f cd 0f 3d 04 41 c7 3b f4 cc ac 3c
       -0.044357173 0.035107907 0.0060807485 0.021093823
0003e0 34 53 fa bc 42 cf cb 3c 19 e3 56 3c e3 9f 28 bc
       -0.030557252 0.024879102 0.013115668 -0.010292026
0003f0 0d f5 00 bd 35 93 22 bb 81 9b 28 3d 43 50 38 3d
       -0.0314837 -0.002480698 0.041163925 0.04499842

bias f4 [64]
000000 14 dd 99 ba 98 25 3d 3d 87 46 14 3c 47 49 fb 3c
       -0.001173886 0.04617843 0.009050018 0.03067459
000010 3c d9 fc bc d8 33 56 bd e4 d5 e6 3a f6 09 51 3c
       -0.030865304 -0.052295536 0.0017611352 0.0127587225
000020 a9 31 6b bc f7 aa 15 bc a7 5b 31 3d 23 eb 05 3d
       -0.014355102 -0.0091349995 0.043300297 0.032694947
000030 08 6d 01 3d 9a 1e 1a 3d aa e1 3c bd d7 7a fd 3c
       0.03159812 0.03762684 -0.046113648 0.030942364
000040 86 80 55 bd ce 86 dd 3c 30 e1 51 3d 0b 2c e6 3c
       -0.052124523 0.027041819 0.051240146 0.028097173
000050 2b e8 77 bc 2e 42 2d 3d 9f 41 d0 bc ab a7 90 bc
       -0.015131037 0.042299442 -0.025421916 -0.017658075
000060 e7 5f e8 3c 99 1e ba bb 43 f3 79 3c f8 03 a6 3c
       0.028366042 -0.005679917 0.015255752 0.020265564
000070 77 2b ab bc 17 08 dd 3c 1c 4d 9d bc 84 6f e1 3c
       -0.02089475 0.026981397 -0.019201808 0.027518995
000080 f4 44 12 bc ac 31 91 bc 07 a7 ef bc 87 8e 21 3c
       -0.0089275725 -0.01772388 -0.02925445 0.009860641
000090 c1 b3 04 bd 2f 38 15 3c e5 50 96 3c 1c c9 3b bc
       -0.03239799 0.0091076335 0.01834912 -0.011461522
0000a0 35 de 34 3d e0 9e 05 3d 74 db 27 3d 19 40 b6 3c
       0.044157226 0.032622218 0.04098077 0.022247361
0000b0 b8 5a 24 3d 09 8a 19 3d 9e 04 b1 3c c3 87 33 3d
       0.04012558 0.037485156 0.021608647 0.043830644
0000c0 b4 e5 03 bd a0 be 6f 3c 6d 86 5c 3c 19 37 47 bd
       -0.032201484 0.014632851 0.013459784 -0.04863653
0000d0 ad 01 33 3d 28 a8 69 bc 02 d0 c1 bc 3f 04 45 3c
       0.04370277 -0.014261283 -0.023658756 0.012024938
0000e0 b6 4a 26 bd 0d 11 89 3c 82 bf 9a 3c 87 10 10 3d
       -0.040598594 0.016731763 0.018890146 0.03517201
0000f0 43 0a 35 bd 81 3a bc bb 4c 69 d1 bb 99 de 4c bc
       -0.04419924 -0.005744279 -0.006390726 -0.012504243

weight f4 [64]
000000 50 ee 53 3f 6c ab 5d 3f e1 49 52 3f 54 b3 85 3f
       0.8278551 0.86589694 0.8214398 1.0445352
000010 23 6d 5e 3f 23 91 51 3f 87 d3 7c 3f d7 26 99 3f
       0.8688528 0.81862086 0.98760265 1.1964978
000020 0d b2 2c 3f 6f 65 54 3f 97 31 99 3f 72 5a 8f 3f
       0.67459184 0.82967275 1.1968259 1.1199477
000030 59 24 46 3f 9e f9 59 3f f8 0e 4f 3f 83 91 42 3f
       0.7739921 0.8514651 0.80882215 0.76003283
000040 40 f0 5a 3f 7a 3c 4f 3f c5 1b 5c 3f 0d ca 86 3f
       0.8552284 0.80951655 0.8597987 1.0530411
000050 56 7e 97 3f d5 0a 48 3f e8 54 4e 3f 3c 23 48 3f
       1.183543 0.7814153 0.80598307 0.78178763
000060 6c 11 4f 3f 89 4f 61 3f 65 a6 44 3f db 0f 87 3f
       0.8088596 0.88011986 0.768164 1.0551714
000070 06 30 50 3f f2 9e 39 3f b8 d2 4f 3f 02 38 4c 3f
       0.8132328 0.72508156 0.81180906 0.7977296
000080 7c a9 5e 3f c5 e8 51 3f bf d4 3e 3f 82 f8 57 3f
       0.8697736 0.81995803 0.74543375 0.8436357
000090 d5 a8 59 3f 16 9b 44 3f e0 33 5c 3f 37 ac 3a 3f
       0.8502324 0.7679914 0.86016655 0.7291903
0000a0 57 6e 52 3f 1d d5 64 3f 01 6b 8b 3f 17 a6 a0 3f
       0.82199615 0.89387685 1.089203 1.2550687
0000b0 5c df 42 3f e1 ea 4e 3f e6 f8 48 3f 9f 56 96 3f
       0.7612207 0.80827147 0.7850479 1.1745185
0000c0 d5 31 8d 3f 9a 7b 57 3f 81 c2 47 3f 10 37 51 3f
       1.1030833 0.84172976 0.78031164 0.81724644
0000d0 ab 68 8b 3f 70 17 41 3f 47 43 5b 3f b0 a4 64 3f
       1.0891317 0.7542639 0.8564953 0.89313793
0000e0 36 dd 94 3f 68 5a 91 3f 63 89 92 3f 78 5f 57 3f
       1.1630008 1.1355715 1.1448177 0.8413005
0000f0 b4 be 8e 3f 6e 00 4c 3f a4 6d 4f 3f 24 5e 98 3f
       1.1151948 0.79688156 0.81026673 1.190373

bias f4 [64]
000000 d8 e4 d6 be 22 7a b3 be da 22 da be e9 b8 25 bf
       -0.4197147 -0.35054117 -0.42604715 -0.64735276
000010 97 b4 a4 be 9f e7 eb be 8a e9 2e be 6a 0d 6b bf
       -0.3216903 -0.4607515 -0.17081276 -0.91817343
000020 c7 3c 26 bf cb 45 76 be 29 d1 4d bf c8 77 55 be
       -0.6493649 -0.24050061 -0.8039728 -0.20846474
000030 a8 f4 f3 be 5a 32 c1 be 4e f3 09 bf 0f 96 ec be
       -0.47647595 -0.37733728 -0.5388688 -0.46208236
000040 af b1 bc be a8 f8 dc be 50 92 cc be d2 58 56 bf
       -0.36854312 -0.4315846 -0.39955378 -0.8372928
000050 55 1f d3 be 95 b6 e5 be a6 43 94 be d0 ae c0 be
       -0.41234842 -0.44865862 -0.28957862 -0.3763337
000060 60 d6 c8 be 16 9b b0 be e6 0a f6 be 9d 1e 46 be
       -0.39226055 -0.3449332 -0.4805519 -0.19347616
000070 ed 8a b1 be 01 1f 24 bf 85 e8 f7 be 54 77 01 bf
       -0.34676304 -0.6410981 -0.48419586 -0.50572705
000080 6e 20 a8 be cf 44 be be 80 67 08 bf bf 03 ba be
       -0.32837242 -0.37161872 -0.5328293 -0.36330983
000090 71 75 c1 be 85 ce f5 be e4 8f 9b be ca 2e 28 bf
       -0.37784913 -0.48009124 -0.30383217 -0.65696394
0000a0 86 da 1c bf 09 94 91 be af b0 3e bf e4 67 e4 be
       -0.6127094 -0.28433254 -0.7448835 -0.44610512
0000b0 47 3b d1 be f4 41 85 be 56 e9 c4 be 80 b6 91 be
       -0.40865538 -0.2602688 -0.3845927 -0.2845955
0000c0 a8 10 35 bf cb 88 b8 be d1 65 a3 be d4 3b c9 be
       -0.7072854 -0.36041865 -0.31913617 -0.39303458
0000d0 55 e7 43 bf 06 7e 21 bf ef 22 90 be 8b 08 93 be
       -0.7652486 -0.6308292 -0.28151652 -0.28717455
0000e0 05 d1 b0 be 5c 4c 65 be 79 e5 6a bf 53 ee b2 be
       -0.3453447 -0.2239241 -0.917564 -0.34947452
0000f0 a5 3b 55 bf 97 92 d3 be df fe df be 75 e5 81 bf
       -0.83294135 -0.41322777 -0.4374914 -1.014815

running_mean f4 [64]
000000 9b 34 fd be 49 02 3d 3f a2 2f 40 3f d3 9f b6 bf
       -0.49454197 0.7383161 0.7507268 -1.4267524
000010 f6 2c 2d 3f ac 53 ab be 34 ac 91 3f a2 e7 f2 bf
       0.6764673 -0.33462274 1.1380677 -1.8976939
000020 8a 8f d6 3e 5f 99 0e 3f 87 81 dc bf 25 e7 4c 3f
       0.41906387 0.55702776 -1.7227029 0.800402
000030 1c bb ab bc 4d f4 54 3f 8b cb 5e bd 8d 09 11 bf
       -0.020963244 0.83185273 -0.054393332 -0.566552
000040 84 dd 2a 3f 32 b8 53 3f 80 cd 5e be 93 c2 be bf
       0.66744256 0.82702935 -0.2175808 -1.4903129
000050 7f b6 22 3f 4b 69 77 be 96 35 0a 3f f5 ea fc be
       0.63559717 -0.2416126 0.53988016 -0.49398008
000060 df a0 6a 3f 1e f8 f2 be 24 db c0 be 8a 1e 8b 3f
       0.9165172 -0.47454923 -0.3766719 1.0868695
000070 6b e1 1d 3f ca 7e 3f be c3 c7 cb be 44 57 98 be
       0.61672086 -0.1870071 -0.39800844 -0.29754078
000080 80 aa 21 3f 8f 65 54 3f 70 e1 68 3e 5a a1 5b 3f
       0.6315079 0.82967466 0.22742248 0.8579308
000090 ec f0 43 3f 2e 21 db 3d fa e0 36 3f 84 84 27 3f
       0.7653949 0.10699688 0.71437037 0.6543658
0000a0 bd b1 2f be 04 f2 44 3f 06 cf ca bf ec 6b 1b 3f
       -0.17157646 0.76931787 -1.5844429 0.6071155
0000b0 1a 79 03 3f 9f a5 f5 3e 47 51 0c 3f 2c 12 3d 3f
       0.5135666 0.4797792 0.5481152 0.73855853
0000c0 02 b8 e2 bf 67 f0 58 3f f8 76 d3 3e ff 80 c1 3e
       -1.7712405 0.84741825 0.41301703 0.3779373
0000d0 ce 3d c4 bf f1 59 a7 3e 2a 36 2b 3f 57 9b 46 3f
       -1.5331361 0.32685807 0.6687952 0.7758078
0000e0 e8 73 f3 3e c4 30 44 3f 65 5e df bf f8 6d 46 3f
       0.47549367 0.7663691 -1.7450682 0.7751155
0000f0 43 4e 03 c0 2b 64 a7 be ba 77 4d 3f 24 dd fa bf
       -2.0516517 -0.3269361 0.80260813 -1.9598737

running_var f4 [64]
000000 49 0d 93 40 49 de 9a 40 06 07 aa 40 0d d2 6e 41
       4.5953717 4.8396344 5.3133574 14.926282
000010 04 ee d0 40 27 82 f7 40 47 39 3f 41 16 2d ce 41
       6.5290546 7.7346377 11.951484 25.772015
000020 5d ea a8 40 40 5d de 40 46 5c d7 41 11 a5 05 41
       5.278609 6.948883 26.920055 8.352799
000030 4b 4c fe 40 c5 6e ef 40 ac 0b c3 40 c3 8e 7b 40
       7.946813 7.4822717 6.095175 3.9305885
000040 0e c7 9b 40 4d ac cb 40 4a f6 8b 40 b3 f4 b5 41
       4.8680487 6.364783 4.3738146 22.744482
000050 27 95 1e 41 84 06 a3 40 ec 89 8f 40 fa df 38 41
       9.911414 5.0945454 4.485586 11.554682
000060 26 e1 85 41 81 58 a8 40 00 4c 8f 40 6b 45 35 41
       16.734936 5.2608037 4.4780273 11.329448
000070 81 5a ce 40 3f a1 c1 40 18 67 66 40 c5 3f 28 40
       6.448548 6.0509334 3.6000423 2.6288922
000080 22 f1 87 40 e0 59 32 41 85 fe b7 40 75 1a 15 41
       4.248185 11.146942 5.7498193 9.318959
000090 96 a8 9e 40 5b b5 a9 40 88 f7 05 41 1b a8 07 41
       4.9580793 5.303388 8.372932 8.478541
0000a0 43 18 1b 40 17 9f 39 41 82 07 9d 41 1b aa 1e 41
       2.4233558 11.60134 19.628666 9.91653
0000b0 6b 9a a6 40 24 bf ee 40 f4 c3 1e 41 9f c4 1c 41
       5.20635 7.4608326 9.92284 9.798003
0000c0 f7 b8 a7 41 03 dd 40 41 66 94 a3 40 42 42 0a 41
       20.965315 12.053958 5.111865 8.641176
0000d0 18 e2 92 41 70 77 59 40 75 94 21 41 82 ff 2c 41
       18.360397 3.397915 10.098744 10.81238
0000e0 93 94 05 41 19 65 19 41 3d 74 ae 41 88 99 f6 40
       8.348773 9.587182 21.806757 7.7062416
0000f0 f9 17 b5 41 75 cd a5 41 ae 07 d5 40 3e eb f8 41
       22.636705 20.72532 6.6571875 31.114864

weight f4 [32, 64]
000000 7a de 13 bd dd b8 e8 bd 06 d3 56 3d b1 5e 9a bd
       -0.036100842 -0.11363385 0.05244734 -0.07537592
000010 c5 33 c6 bd 88 96 73 bd 61 0d 0f be 20 02 ff bd
       -0.09677843 -0.05946973 -0.13969947 -0.12451577
000020 48 dd 09 3e 8a bc 7f 3c 97 f8 c8 bc 6a b6 c1 3c
       0.13463318 0.015608916 -0.0245326 0.023646552
000030 a1 b8 1a 3e 03 49 22 bd 18 22 a3 bd b0 0d 41 bd
       0.15109493 -0.03962041 -0.07965487 -0.047132194
000040 a5 c4 16 bd 05 06 12 3d 9e bf ac bd 9f 98 d7 bd
       -0.03680863 0.035650272 -0.084349856 -0.10527157
000050 20 bc 89 3b 04 35 c0 bc 18 c0 74 3d 19 35 66 bd
       0.0042033345 -0.02346278 0.059753507 -0.05620298
000060 38 e3 6b bd e5 1b 27 3d 67 f7 4b bd 1f 07 f7 3c
       -0.05758974 0.040798087 -0.049796488 0.030154763
000070 97 5b e9 bd 48 de d9 bd 37 88 ab 3c 95 7b 04 3e
       -0.113944225 -0.106381 0.020938976 0.12937768
000080 15 55 f5 3c 47 29 e5 bd b6 2b dd 3d 08 99 52 3d
       0.029947797 -0.11189514 0.10799353 0.051415473
000090 32 21 57 3d fb 5d 40 3d 8c e0 04 be 8c c6 6e 3b
       0.052521892 0.046964627 -0.12976283 0.003643426
0000a0 27 51 c9 bd 95 59 02 3e 66 9e a9 bd 4a 96 1c bd
       -0.09829932 0.12729485 -0.08282165 -0.038229264
0000b0 b4 c9 ea bd ad 2c 09 be fe cc 8e 3d c3 31 9b bd
       -0.11464253 -0.13395949 0.06972693 -0.07577851
0000c0 bc a0 b3 bd d6 48 0e 3d 14 13 cd bd 83 0f f5 bd
       -0.08770892 0.03473743 -0.100134045 -0.11965849
0000d0 ef f8 ba 3d f0 c4 ba 3d 34 f1 72 3d f5 ed 9e bd
       0.091295116 0.09119594 0.05931206 -0.077602305
0000e0 d3 bc b9 bd 84 4d 80 bd 5b 16 bd bd c7 1b 78 3d
       -0.090692185 -0.06264785 -0.092327796 0.060573366
0000f0 7e f3 b1 bd 65 00 09 3d 46 b8 04 3d 21 8d 9c 3d
       -0.086890206 0.033447642 0.0324023 0.07644106
000100 58 7f a0 bd f4 cf 31 3d 13 fb f6 bb 07 04 95 bc
       -0.07836789 0.04341121 -0.0075372546 -0.018190397
000110 71 69 aa bd 34 9d c5 3d be 48 fc bc d0 c7 1e 3e
       -0.083208926 0.09649125 -0.030796405 0.1550591
000120 54 f7 f5 3d a0 89 9a bb 2b 6e a3 3d 4a 42 a9 bd
       0.12010065 -0.004716113 0.07979997 -0.08264597
000130 ed 9e d3 3d f8 45 5f bd 85 17 be 3d 26 17 c7 bd
       0.10333047 -0.054510087 0.0928183 -0.09721212
000140 55 27 1e bc 59 ac 29 3d 25 7e e1 3d fe fc 7c bc
       -0.009652932 0.04142413 0.11010388 -0.015441177
000150 21 b4 86 3d 87 95 ef bd 4b b9 0e 3d 38 e3 22 bd
       0.065773256 -0.11698442 0.034844678 -0.039767474
000160 1b 1d d6 bd 77 14 6e 3d 92 ab 8f bd 36 bb a3 bd
       -0.1045477 0.058124986 -0.07015146 -0.07994692
000170 25 b2 9b bd 66 fa 8d 3c 1b 99 78 3d 5d 36 a6 bd
       -0.07602338 0.017331313 0.060692888 -0.08115838
000180 2d 79 7b 3d 83 ea f9 bd 9c eb bb bc bf 2d b2 bc
       0.06139486 -0.12202933 -0.022939496 -0.021750329
000190 c3 72 6f bd ea ba a3 3c e0 ee 8c bd cc 51 9b 3d
       -0.058459055 0.019986589 -0.06881499 0.07583961
0001a0 b1 f6 87 bd 93 38 51 bd 30 64 29 bd 0f 98 67 bc
       -0.066388495 -0.051079344 -0.041355312 -0.014135375
0001b0 6c 74 c4 bd c6 12 b8 3c 1e 17 59 bd df c9 b7 bd
       -0.09592518 0.02246989 -0.053000562 -0.08974051
0001c0 1e f8 db bd 86 76 b8 bd db bb 38 bd 5b bc f0 bd
       -0.10740684 -0.090069816 -0.045101028 -0.11754676
0001d0 61 6c 1c 3d 5d e2 58 3c ad 15 f2 bc fc 8b 27 3d
       0.038189296 0.013237563 -0.029551351 0.040904984
0001e0 21 08 d7 bd 5b e5 49 bd 7e 66 7c 3d 30 89 11 bd
       -0.10499597 -0.049290996 0.06162118 -0.035531223
0001f0 82 75 43 3d 97 84 fd 3c 2c 1e 5b bd 61 0b b6 bd
       0.047719486 0.030947013 -0.05349557 -0.08888889
000200 a0 69 d5 bd 34 de 6e 3d b7 ea 8b bd d5 99 4f 3d
       -0.10420537 0.05831738 -0.06831878 0.050683815
000210 98 62 69 3c 3b 81 71 bd 37 33 ac bd 81 e8 7a 3d
       0.014244698 -0.058961134 -0.08408206 0.06125689
000220 7e 02 36 3b c6 59 97 3d 0e b1 26 3d b8 75 04 be
       0.0027772482 0.0739017 0.040696196 -0.12935531
000230 51 ef 35 bd e6 2e 2a 3d 30 64 29 bb a0 13 19 be
       -0.044417683 0.041548632 -0.002584707 -0.14948893
000240 0a 0f a7 3c 49 d4 a9 bd 34 1b e7 bd e4 b0 0d bc
       0.020392913 -0.08292443 -0.112844855 -0.008648131
000250 58 ed e8 3c 65 7e 0d be 45 72 c5 bd f2 45 1d bd
       0.028433487 -0.13817747 -0.09640936 -0.038396783
000260 15 02 7e 3d 10 cf 8e 3d 85 e4 71 bd d6 4d d4 3a
       0.062013704 0.06973088 -0.059055824 0.0016197513
000270 c2 f0 82 bd 5c f3 7d 3d 9b 9b 3a bd 96 0c 45 3a
       -0.06393577 0.061999664 -0.045558553 0.0007516829
000280 fa 9e 25 3d 74 92 60 bb be 0e 70 bd bf 1c df bb
       0.040434815 -0.003426698 -0.05860781 -0.0068088467
000290 2d 58 7e bd 55 de e5 bd f6 de ce bd 82 f8 45 3c
       -0.06209581 -0.11224047 -0.1010112 0.012083175
0002a0 64 c0 03 be d5 24 a2 bd 06 6a 9d 3c 85 dc 8f 3d
       -0.1286636 -0.079171814 0.019215595 0.07024483
0002b0 28 56 62 3c a4 c5 29 bd b9 67 95 bc 12 31 02 3d
       0.013814487 -0.04144825 -0.018237935 0.03178508
0002c0 66 1c d3 bc a2 ee 03 be 36 7e a7 3d 0d b4 f8 bd
       -0.025770377 -0.12884 0.0817837 -0.12143717
0002d0 1a 90 97 3c 9f 68 ae 3c f6 15 16 bd b5 2f 77 3d
       0.01850133 0.021290122 -0.036642037 0.06034823
0002e0 d6 b0 bd bd 17 e4 0b be 23 29 94 3d 0f 3e a4 3c
       -0.092622444 -0.13661228 0.07234409 0.020049123
0002f0 2f c6 6e bd da f1 1d bd 21 b0 fc bd 50 cf 37 3d
       -0.05829447 -0.038560726 -0.123382814 0.044875443
000300 24 0d 52 be 14 45 52 be ef 5a 8b bc cb ee 92 be
       -0.20512825 -0.20534164 -0.017011134 -0.2869781
000310 9b aa 77 bd 22 6f 42 3d 80 66 1b 3d f8 01 44 be
       -0.060465436 0.047469266 0.03793955 -0.19141376
000320 1c 3e 10 3e 2f 9e 3c be 3e 83 d3 be 24 69 e1 3d
       0.14086193 -0.18419717 -0.41311067 0.11006382
000330 7d d6 ec b9 52 77 6a bd 01 5f c8 3d 79 96 e4 bd
       -0.00045173234 -0.0572427 0.097837456 -0.11161513
000340 7d 81 0f be f5 cd a1 bd e9 1f 0f be a8 0d 80 be
       -0.1401424 -0.07900611 -0.13977017 -0.2501042
000350 06 0f 12 3e 1c c3 be 3d 2d 0d 24 be da 63 29 3d
       0.14263543 0.09314558 -0.16020651 0.04135499
000360 04 a0 e2 bd 90 67 a6 be 8f f9 94 bd 39 a1 ea 3c
       -0.11065677 -0.32500887 -0.07274162 0.02864133
000370 be 78 ce bd 40 5a 1a 3d 9a 95 31 bd 56 4a a4 3d
       -0.100816235 0.037683725 -0.04335556 0.08021991
000380 9f 57 15 bd 05 28 0d be a7 f3 6f 3d 82 b2 af bd
       -0.036460515 -0.13784797 0.058581974 -0.085789695
000390 da 84 fe bd 88 ac 56 3e 2a 4f 83 bd 51 42 2a bd
       -0.12427683 0.20964253 -0.06411584 -0.04156715
0003a0 b2 65 6a 3d 46 29 14 be 63 a3 8b be 8e f0 5c 3d
       0.05722589 -0.1446887 -0.27273092 0.05394035
0003b0 d7 22 18 bd e1 d4 5a bd 8d 55 05 be ff c3 5b 3d
       -0.0371426 -0.053425673 -0.13020916 0.053653713
0003c0 3d 01 8f be 02 f0 f0 bd fd 3a 02 be f5 d8 fc bd
       -0.27930632 -0.11764528 -0.12717815 -0.12346069
0003d0 36 5f da be a1 0f 70 3d a5 07 0b be ac 4e 5f be
       -0.42650765 0.058608655 -0.13577135 -0.21807355
0003e0 67 87 de 3c 19 da b6 3d 4a d9 9c be 1d ee 42 3c
       0.027164174 0.089283176 -0.30634528 0.011897591
0003f0 14 68 9c be 7d da c7 3d a2 c8 de bd 3b 34 bc bd
       -0.30548155 0.0975847 -0.108781114 -0.0918965

bias f4 [32]
000000 36 53 5b bd 2d 43 08 be be f5 1c be d3 38 15 3f
       -0.053546153 -0.13306876 -0.15328118 0.5828983
000010 5d e8 90 3d e9 49 74 3e 88 e6 ad 3e cb ff 4a bd
       0.0707557 0.2385632 0.33964944 -0.04956035
000020 bb 7d 35 3e 25 82 fc 3e 7e a4 26 bd 31 cd 8c 3e
       0.17723744 0.49318042 -0.040684216 0.275003
000030 2b 77 d9 bd 60 d2 d9 3e 15 e0 79 3e 35 97 16 bd
       -0.106184326 0.42543316 0.24401887 -0.036765296
000040 f7 c6 fb bd c3 e9 d8 3e d4 f0 b1 3e 34 a2 28 3e
       -0.12293809 0.42365846 0.3475405 0.16468126
000050 d2 8d 91 3d 69 33 87 3e ce eb b0 3e 94 a8 48 3e
       0.07107128 0.2640641 0.34554905 0.19595557
000060 de 21 87 bd 13 34 3f 3e 5d 87 d3 3d df 21 d0 3d
       -0.065982565 0.18672208 0.10328553 0.101627104
000070 39 80 8d 3e a7 7a 15 bd 78 3d 55 bc 8d 9d 9e 3c
       0.2763689 -0.036493924 -0.013015144 0.019362235

weight f4 [18, 32]
000000 8f cc cc 39 7e 16 e4 3d 75 f4 36 bd 30 ee bc be
       0.0003906232 0.111371025 -0.044666726 -0.36900473
000010 8d 27 f8 3c c7 0a ab 3e 0e 8e 21 3f 24 39 ff 3b
       0.030292297 0.3340666 0.63107383 0.007788794
000020 ac 6c 03 3f ff 8a f4 3e 0c a0 7a bc 04 f1 d0 3e
       0.51337695 0.47762296 -0.015296947 0.4080888
000030 35 b9 b1 3d e3 09 b5 3e 46 39 2d 3e f1 54 0a 3d
       0.086779036 0.35359105 0.1691638 0.033772413
000040 99 87 b3 3d 39 3f be 3e df 44 ea 3d 81 8f 46 3e
       0.087660976 0.3715761 0.11438917 0.1939068
000050 68 d7 f5 bd 73 35 80 3e 1a 44 a1 bd 1b 93 fe 3e
       -0.12003976 0.2504078 -0.078743175 0.49721608
000060 66 df 01 3e b8 c5 79 3e b1 ef 24 3f 27 90 29 3c
       0.12682876 0.2439183 0.6442824 0.01034931
000070 eb 89 98 3e ad 15 a2 3d 71 07 a1 bd 97 85 a1 3d
       0.29792723 0.079142906 -0.078627475 0.07886808
000080 52 31 7b 3d 3d c8 18 be 30 b1 cb bd 21 58 e2 3c
       0.061326332 -0.14920135 -0.09945905 0.027629914
000090 7f 2c e6 bd 36 3e 53 be cb 26 c1 3d 9a 99 ce 3d
       -0.11238956 -0.206292 0.09431227 0.10087891
0000a0 8c 51 a1 3d 9d 0f 14 be 5c e8 37 bd ec 6b 50 3d
       0.07876882 -0.14459081 -0.04489933 0.050884172
0000b0 00 79 90 bd 26 bd b3 bd d6 9b cf 3e 82 9c 87 bd
       -0.07054329 -0.087763116 0.4054858 -0.06621648
0000c0 37 0c 02 bd 1b 3d 28 be f2 de 5f 3e f0 67 93 3d
       -0.03174993 -0.1642956 0.2186239 0.07197559
0000d0 35 73 e1 3c 72 20 83 3e 8d 8c 18 be db 43 80 be
       0.027520755 0.2561069 -0.14897366 -0.2505177
0000e0 24 c4 ae bd 46 79 a5 3d 5f 5e 9d 3e 17 1b 8b bd
       -0.085335046 0.08079772 0.30736062 -0.06792276
0000f0 37 0e a1 be 08 0a 11 3c a2 45 0a 3e ce d1 02 bb
       -0.31456158 0.008852489 0.13503125 -0.001996148
000100 87 02 80 bd 9b e9 c9 bd 68 0a 51 3c 06 08 c3 bd
       -0.06250482 -0.0985901 0.012758829 -0.09523015
000110 3c fd e3 bc e1 eb 36 3e 43 c9 a7 3d b5 7c f4 3d
       -0.027830712 0.17863418 0.081926845 0.119378485
000120 40 32 b8 3d 2f 93 31 be 9f 68 0a 3e d9 ee 32 bd
       0.089939594 -0.17341302 0.13516472 -0.043684814
000130 29 a1 50 bd b9 60 46 be fd 15 25 3e 8d bf 2d 3e
       -0.050934944 -0.19372834 0.16121669 0.16967602
000140 f9 95 10 3e 54 12 80 be 8c ff 45 3d 58 e8 be bd
       0.1411971 -0.25013983 0.04833941 -0.0932166
000150 d7 38 48 be dd cd be bd d8 8a c0 be 1f 34 92 be
       -0.19552933 -0.09316609 -0.3760593 -0.2855539
000160 b2 81 c5 3c 62 eb 3f 3d bd 04 1d 3e 71 3f b2 bd
       0.024109695 0.046855338 0.15333839 -0.08703507
000170 ac 08 5b be e8 22 fa 3d 2f 73 c1 3c 8b 9c ce bd
       -0.21390027 0.12213689 0.023614494 -0.10088452
000180 ae 2e 28 3e 6c b9 6a bb ed 29 20 be a9 fe a0 3e
       0.16424057 -0.0035816086 -0.15640993 0.3144429
000190 cf 2c 21 bc 32 18 f7 3e b0 9e 4e 3e 60 59 78 3d
       -0.009837343 0.48260647 0.20177722 0.06063211
0001a0 14 71 14 3f 34 d8 8e 3e 3f 7b 01 3e da 4c 83 3e
       0.57985044 0.27899325 0.12644671 0.2564457
0001b0 ec dc 0c 3e da b0 9d 3e af 42 0c 3e 8d d8 ff bd
       0.1375615 0.3079899 0.13697313 -0.12492476
0001c0 77 a8 18 be 6e 11 86 3e 24 72 b6 3d 9b 69 27 be
       -0.14908014 0.26185173 0.08908489 -0.16348879
0001d0 b1 c6 1e 3d bd df b0 3e 95 d5 9c be 55 63 8c 3e
       0.038763706 0.345457 -0.306317 0.27419534
0001e0 1c 54 15 3e 50 99 8b 3e 55 e9 d7 3e 59 45 eb 3c
       0.14582866 0.27265406 0.42170206 0.028719591
0001f0 53 07 8f 3e aa e9 2a 3e 23 ed bf 3a bb 4e 76 3e
       0.27935275 0.16690698 0.0014642816 0.24053471
000200 19 9d 17 be 8f a2 72 3d 7d 00 76 bd 44 3d a0 3e
       -0.14806022 0.05923706 -0.06005906 0.31296742
000210 cb ab 28 3e 84 94 83 3e 55 fe 86 bd 37 81 5f bd
       0.16471784 0.25699246 -0.06591479 -0.05456659
000220 0e 42 25 3e ba 61 a4 be e1 b6 a5 bd 64 e1 2d bd
       0.16138479 -0.3210581 -0.08091522 -0.042451277
000230 06 c9 0e 3d 88 9d 99 be 61 ae d4 3e 92 60 7a bd
       0.03485968 -0.30003 0.4153929 -0.061127253
000240 4b 3a 68 3c 9f 3e a3 be fb 80 88 3e 94 b4 d3 3e
       0.014174054 -0.31883714 0.26660904 0.41348708
000250 cd c9 48 3d c2 c2 99 3d ca 72 5d 3e 33 21 03 be
       0.049020577 0.0750785 0.2162582 -0.12805633
000260 2d d8 05 3e 65 2d e4 3d d4 b7 03 3e 8d 32 94 3d
       0.13070746 0.11141471 0.12863094 0.07236204
000270 c8 6f 88 be 56 e5 08 be fa 05 a0 3d 51 2c f5 bc
       -0.26647782 -0.13368735 0.0781364 -0.029928358
000280 d0 64 0e be d4 af d9 bd 59 d7 30 be ca b3 85 3d
       -0.13905644 -0.1062924 -0.17269649 0.06528433
000290 67 fe e5 bd f8 36 9d 3e e0 d6 97 3d 5f 34 30 bc
       -0.11230164 0.30706 0.07414031 -0.010754674
0002a0 7b 4b 2a 3c ff ee 8d be eb ef a2 3a bc c6 ff bd
       0.0103939725 -0.27721402 0.001243112 -0.124890774
0002b0 f3 52 a1 be 21 27 9a be 77 4e ef 3d c1 4b e8 3d
       -0.31508598 -0.30107978 0.11684888 0.11342574
0002c0 50 c8 b2 bd 3c ac 89 be c4 12 be 3e 46 cf 96 be
       -0.08729613 -0.26889217 0.37123692 -0.29455012
0002d0 ce 85 03 3c 69 ca 9f 3c 76 50 ba be 00 f9 86 be
       0.008027507 0.019505696 -0.36389512 -0.26361847
0002e0 3f f5 e4 3c d8 aa ae 3d db 9b 01 3d b0 7f 56 be
       0.027948974 0.085286796 0.031642776 -0.20947146
0002f0 c9 6e 85 be 51 bf bb bd c2 e7 2f 3d f6 50 f8 bd
       -0.26061085 -0.0916735 0.04294563 -0.12124817
000300 37 c6 c6 bd a0 a3 86 3d 7e 12 df 3d 94 16 01 bf
       -0.09705775 0.06574178 0.10892199 -0.50425076
000310 a8 86 2a 3d 22 7d d5 be 3c f2 2e 3d b0 7e 7a bd
       0.041632324 -0.4169703 0.04271148 -0.061155975
000320 52 4d 85 be aa 5a 65 3e 24 b5 20 3e f5 d5 bd 3e
       -0.26035553 0.22397867 0.156941 0.370773
000330 01 89 96 3e b8 83 0a 3e 23 be c6 3e bc 52 5d bb
       0.294014 0.13526809 0.38816938 -0.0033771237
000340 50 05 77 3c eb 7e 2a 3e b6 07 05 be 95 88 13 3e
       0.01507695 0.16649978 -0.12991223 0.1440757
000350 4d be 13 bd 7f a6 a3 bd 7f 8d cb bc bb fd 1f 3f
       -0.036070157 -0.07990741 -0.024847744 0.62496537
000360 65 9f 01 3e 16 db 21 be 9e 2e a0 3d 05 9e e5 bd
       0.1265846 -0.15806231 0.078213915 -0.112117805
000370 0c 7d 44 3f 60 58 23 be b2 36 01 3e 0e d6 49 bd
       0.76753306 -0.15951681 0.12618521 -0.049276404
000380 29 3f 20 3e ec 88 f3 3d 88 72 ac 3b 4f 46 a3 be
       0.15649094 0.1189135 0.0052626766 -0.3188958
000390 0e 00 08 be 58 d9 16 bf 1c c5 2d be b4 d1 c0 3d
       -0.13281271 -0.5892539 -0.16969723 0.09414998
0003a0 dc c6 12 bf f9 fd 23 be fe 75 b3 bd d8 22 98 bd
       -0.57334685 -0.16014852 -0.087627396 -0.07428521
0003b0 db 9d 7b bc 57 fe 38 be 11 43 5b 3e f2 4a fa bc
       -0.01535746 -0.18065773 0.21412303 -0.030553315
0003c0 1c c7 4f 3d 4d d7 0b be f4 1c 1b 3e 4c 7d 77 3e
       0.050726995 -0.1365635 0.15147763 0.2416889
0003d0 d7 77 2f be b4 99 0c 3e 88 0d 8d 3e b8 e5 e6 bd
       -0.17135559 0.13730508 0.27549386 -0.11274284
0003e0 94 80 bc bd 87 23 94 be 0f 87 7d be 19 b0 00 be
       -0.09204212 -0.28933355 -0.24758552 -0.12567176
0003f0 ef 7c 62 bd 53 9b df bd e7 db 54 3c 98 12 43 be
       -0.055294927 -0.109182976 0.012991882 -0.19050062

bias f4 [18]
000000 36 ba 42 3e 58 06 95 3f 46 d7 57 bd 7f bf 3b 3f
       0.19016346 1.1642561 -0.052695535 0.73339075
000010 b5 e4 b2 3f 7b 65 45 3e 64 6d d4 be 1e c9 c0 bc
       1.3976046 0.19276993 -0.41489708 -0.0235334
000020 84 96 35 bf d0 80 f7 bd 4c 1e 4e 3e 69 82 2c bf
       -0.70932794 -0.12085116 0.20128745 -0.6738649
000030 e6 bd f3 be 87 e9 46 bd 70 3f 05 bf e1 35 27 be
       -0.4760582 -0.048562553 -0.5204992 -0.16329147
000040 09 41 0b 3e 3c 2a 19 bf
       0.13599028 -0.5983007
